model.pt (torch_old, 8232 bytes, 6 tensors)

fc1.weight f4 [32, 37]
000000 25 14 0a bd c6 26 b8 bb 01 e2 c5 bc 3e ec 1e bd
       -0.033710618 -0.0056198565 -0.024155619 -0.038799517
000010 7a 33 c0 bc 99 8e 8f bb 94 15 be 3d e6 e5 7c 3d
       -0.023462046 -0.0043810126 0.092814595 0.061742686
000020 6d 43 13 3e 4f 0a 0f 3e bd cb fe bc a1 2c 2c bd
       0.1438119 0.13968776 -0.03110301 -0.04203475
000030 10 f4 46 bd f9 2e 00 3d 95 45 cf 3c 19 bd bc 3a
       -0.0485726 0.031294797 0.025301734 0.0014399617
000040 17 68 3a 3d b0 33 2b 3d 7e 0e 25 3d 91 c5 87 3d
       0.045509424 0.04179734 0.040297024 0.0662948
000050 6b fe 05 3f d1 e2 25 bf f2 ab d4 be 3a ac 03 bf
       0.52341336 -0.6479922 -0.41537434 -0.5143467
000060 6d b2 0d c0 55 72 86 bd 1b 30 a8 bc 85 aa e5 3c
       -2.2140152 -0.06564776 -0.020530751 0.028035412
000070 4b 03 bb 3d bf 34 1e 3e 9d a8 eb bc 31 37 1a 3d
       0.091314875 0.15449809 -0.028766925 0.03765029
000080 13 34 97 3b f5 e9 b0 3c 8e 04 1f 3e 86 ae e4 bb
       0.004614362 0.021595934 0.15529081 -0.0069788126
000090 e1 37 3b 3b 97 e2 e8 3d dd b3 03 3e dd 5e 99 3d
       0.0028567242 0.113713436 0.12861581 0.07488797
0000a0 a6 de cc bb 63 38 af bd 41 93 93 bd 3b 3d 7f 3d
       -0.0062521277 -0.08555677 -0.07205821 0.062314253
0000b0 20 6d 77 be 4c 03 2c bd 28 1b 17 be c0 63 24 3e
       -0.24162722 -0.04199533 -0.14756453 0.16053677
0000c0 ae f1 89 bd 78 8e 5d bc bd dd 88 bd d2 9f 5a be
       -0.0673555 -0.013522737 -0.06682918 -0.21350029
0000d0 17 90 ab bc 81 2a 1d 3e 5d ef 92 bc 57 17 d0 3d
       -0.02094273 0.15348245 -0.017936403 0.10160702
0000e0 03 61 1c 3e 6b 76 71 3d de cc c7 bd 14 15 0d be
       0.15271382 0.058950823 -0.09755872 -0.13777572
0000f0 17 bb 80 be 90 45 6a 3c c2 32 a4 bd 4d 10 1a 3d
       -0.25142738 0.014298812 -0.08017494 0.037613202
000100 f6 2e a1 3d 88 4e fc 3c 7a 85 4d 3e 47 2a 9f 3c
       0.07870285 0.030799165 0.20070449 0.01942934
000110 31 d9 34 3e 0e 6d 23 bc 44 fc d3 3d dd 5a 15 be
       0.17660977 -0.009974731 0.1035085 -0.14585443
000120 7f 64 36 3d b4 25 69 3d 8a 1b 8d 3d 17 ae 89 3e
       0.044529434 0.056920722 0.06890018 0.26890633
000130 37 e8 26 be 85 4b e6 bd 20 52 c7 bd 15 18 07 be
       -0.1629952 -0.11244873 -0.09732461 -0.1319278
000140 d1 df 3e 3c 5e b5 b6 3d 7b 14 f7 bd 70 11 0d bb
       0.011650042 0.08921312 -0.12064453 -0.0021525286
000150 97 ac f2 bc f7 77 6d bd 1f ed 7b bd 2a e7 de bb
       -0.029623313 -0.057975736 -0.061505433 -0.0068024592
000160 92 2e 9f 3c c2 43 99 be 3a ca 43 be 7c 84 a2 3e
       0.019431386 -0.29934508 -0.19120112 0.31741703
000170 a7 10 e1 3d 79 4a 0e 3e 97 7b 66 be a5 f4 a5 bd
       0.10989504 0.13895597 -0.22508083 -0.08103303
000180 77 26 49 3d a5 34 7a bd 0a 8d 02 be 7f d8 98 bd
       0.04910895 -0.061085362 -0.12749115 -0.07463168
000190 48 33 01 3c f4 29 80 3d a8 52 b8 3c 14 66 0d bf
       0.007885762 0.06258002 0.022500351 -0.55233884
0001a0 83 fc 09 3d 47 7c cb bd a5 87 81 be be 7d 67 be
       0.03368808 -0.099358134 -0.252988 -0.2260656
0001b0 81 37 40 3e 37 ef ec bc a0 00 28 be bb 0a 23 3d
       0.18771173 -0.02892266 -0.16406488 0.039805155
0001c0 34 89 bb bd 2f 47 7a bd 20 aa 0e be d7 db 13 be
       -0.09157029 -0.061103042 -0.13932085 -0.14439331
0001d0 33 ca 2d be 6e c6 c3 be d6 8a 8c 3d 5f af fa be
       -0.16971664 -0.38237327 0.06862418 -0.48961923
0001e0 da 1f aa bf 69 2a 96 be 16 29 9a be 87 a0 f2 3d
       -1.329097 -0.2932923 -0.3010947 0.118470244
0001f0 1d dd 07 bf 15 2f b0 bf 6d 60 33 be ab 30 d4 be
       -0.5307177 -1.3764368 -0.17517252 -0.4144338
000200 6b 8a 45 be d8 e4 f3 bd 28 06 eb bd 20 41 94 be
       -0.19291084 -0.11908883 -0.114757836 -0.28955936
000210 dc 31 9a be ee b7 4f 3c b2 7e 39 be b9 1c d3 bf
       -0.30116165 0.01267813 -0.18114737 -1.649314
000220 66 11 42 bd 29 37 ed be 51 35 07 be 7f 7d b3 bd
       -0.047379874 -0.46331146 -0.13203932 -0.08764171
000230 ac e4 1d bd 3b 23 23 be 30 ce 23 be 1f 00 fd 3d
       -0.038548157 -0.15931408 -0.15996623 0.12353539
000240 04 d3 0b bf c6 02 02 c0 e1 bf 79 be f4 e8 58 3d
       -0.5461886 -2.0314193 -0.24389602 0.052956536
000250 21 26 4d bd a4 47 c9 bc fa e7 2c bd ce d5 06 bd
       -0.05008519 -0.024570294 -0.042213418 -0.032918744
000260 32 d3 c4 bc 88 f5 13 3f b0 d7 26 bf 27 55 fb be
       -0.024026487 0.57796526 -0.65172863 -0.49088404
000270 91 b0 d5 be cf c8 09 c0 fd dc 62 3c 3a 2a 7a 3a
       -0.41736272 -2.1528814 0.013846633 0.00095430354
000280 3e fc cb 3c c4 ca eb b9 40 48 f0 bc 17 cc cb bb
       0.024900552 -0.00044973765 -0.029331326 -0.0062193978
000290 6a da 5f bc 19 fc 53 bc 68 88 1e 3b dc 18 c0 3c
       -0.013662914 -0.012938523 0.0024190191 0.023449354
0002a0 64 7d 31 ba eb c2 3e ba ba b9 92 3c 47 ff 35 bb
       -0.0006770699 -0.000727697 0.017910827 -0.0027770565
0002b0 af 1f 3e bd cd 9c 09 3d 5e a3 87 3d ec b6 1b 3d
       -0.046416935 0.033596803 0.06622957 0.038016245
0002c0 ab 98 97 3c 77 76 27 bc 33 39 b7 3d 03 d6 ee 3d
       0.018505415 -0.010221115 0.08946457 0.11661913
0002d0 dd d5 bd 3d 11 dd ec 3c 8c 06 77 bd 68 57 b7 b9
       0.09269307 0.028914006 -0.060308978 -0.00034969603
0002e0 04 be 32 3b 00 45 ad bd 4e 31 66 bc 7d 25 d5 bc
       0.0027273903 -0.08460426 -0.014049841 -0.026018852
0002f0 8b 8a ed 3c ea 00 4b 3e 81 1c dd bd a4 43 03 3e
       0.028996726 0.19824567 -0.10796452 0.12818772
000300 ae 87 ed 3d 29 62 95 3d 4b 2a 6b be 23 6e 06 bf
       0.115981445 0.07294113 -0.22965352 -0.52511805
000310 07 a5 bb 3d c4 e7 4f 3d 77 41 da 3d 72 0b b1 be
       0.09162336 0.05075814 0.10657018 -0.34579045
000320 d3 80 05 be a8 96 46 3d d9 41 74 3c 66 9a ad 3d
       -0.13037424 0.04848352 0.014908277 0.08476715
000330 14 cb 36 3b 42 e6 cf 3d 59 fe c4 3d ea 2f 22 3e
       0.002789204 0.1015134 0.096188255 0.1583859
000340 0f 3c 0f 3d e3 08 73 be 10 d4 57 bc ed d8 2a 3d
       0.034969386 -0.23733859 -0.013173118 0.041710783
000350 13 c5 00 3d 20 5f 21 be 6f 45 07 3d 77 c2 de be
       0.031437945 -0.15758944 0.0330252 -0.4350774
000360 c9 f6 28 3e 02 22 85 3e 24 04 04 bf 0d 06 28 bf
       0.16500391 0.26002508 -0.5156882 -0.6563423
000370 02 4e 58 3d 18 85 9e 3c 0a b4 37 ba 6b f8 15 3d
       0.05280877 0.019350573 -0.0007007724 0.036613863
000380 66 76 41 3c fa 82 12 3d 02 0e 55 3d 06 38 73 bd
       0.011808014 0.03576944 0.052015312 -0.0593796
000390 5d 21 05 3d 1b 06 5b 3c b0 48 fd 3d d1 8f 4b 3e
       0.03250252 0.013368155 0.1236738 0.1987908
0003a0 19 4e 63 3d 83 a4 be 3d cf c4 9f 3d ed 09 dc 3d
       0.0554944 0.09308722 0.0780121 0.10744081
0003b0 38 67 3f 3c 6b 9f 56 bd 62 ae 95 bc 93 e9 09 3c
       0.011682324 -0.052398127 -0.018271629 0.008417505
0003c0 e0 93 20 3d 8f 29 85 3d 05 48 3c bb da 1b f5 3c
       0.039203525 0.06502067 -0.002872945 0.029920507
0003d0 cc e1 b0 3b 06 ef e3 3c ec 7b 91 3d 69 ad e4 bd
       0.005398011 0.027823936 0.07103714 -0.11165888
0003e0 06 07 54 bd 54 ff 86 bc e2 35 20 bb 8e 44 16 3e
       -0.05176451 -0.016479172 -0.002444618 0.14674589
0003f0 44 f0 c6 3e c8 6b ea be ce 10 b1 be 49 1a e0 be
       0.38855183 -0.45785356 -0.34583133 -0.43770054

fc1.bias f4 [32]
000000 2c 7e ed bd aa 0d 47 be 41 a0 95 bd 27 1c 48 3d
       -0.11596331 -0.19438806 -0.07305957 0.048854973
000010 d0 3f 9d 3e c7 e9 c9 bd 21 52 bd bb c7 71 6c 3d
       0.30712748 -0.098590426 -0.005777613 0.057725694
000020 e8 78 ba 3d f4 70 8a 3d d9 3f fc 3d 33 ed 1a bd
       0.09105092 0.06759825 0.123168655 -0.037823867
000030 8d 8b 26 3e 59 6a be 3d e2 38 f7 3d bc 07 55 be
       0.16264172 0.09297628 0.120713964 -0.20803732
000040 7b 15 e7 3d 30 e5 30 3e 54 e4 a2 3e d4 d1 46 be
       0.11283394 0.17274928 0.31814826 -0.1941598
000050 ca 3e a2 bd 60 98 e1 bd 87 e3 a7 3b 4e d2 e9 3d
       -0.07922132 -0.11015391 0.005123559 0.114170656
000060 bc b4 2b 3e 77 cd 10 be c5 06 98 3d 96 db 93 bd
       0.16768163 -0.14140879 0.07423166 -0.07219617
000070 c3 c4 5f 3e 67 a2 42 be 18 f3 b0 bd 62 ba 13 be
       0.21852402 -0.19007264 -0.086401165 -0.14426568

fc2.weight f4 [16, 32]
000000 08 f4 a1 3e 55 c1 3a 3e a3 18 a4 be 89 4d ec bd
       0.31631494 0.18237813 -0.32050046 -0.11538226
000010 eb 17 96 3e 73 c0 23 bd b3 3c fe 3e 8d 4e 68 3c
       0.29315123 -0.039978456 0.49655685 0.014178884
000020 29 53 ee 3d a7 db c2 3d 02 8c dc bd c5 1c ee be
       0.11636955 0.095145516 -0.10768892 -0.46506324
000030 63 97 a6 3d 41 d3 82 bd 3d 39 d0 3d 73 41 88 3e
       0.081343435 -0.0638795 0.10167167 0.26612434
000040 0d 18 ab bc 38 5a 23 bd 0b a3 38 bd a7 24 2d 3e
       -0.020885492 -0.03988096 -0.045077365 0.16908513
000050 78 c6 8d be 8b fd b4 bc 70 4a 20 3e 8d 52 17 3d
       -0.27690482 -0.022093555 0.15653396 0.03694396
000060 66 d2 fc bd 3e a8 98 be 82 f2 11 bc 6c fb 5f 3e
       -0.12344818 -0.2981586 -0.008907916 0.21873254
000070 a6 1b 86 3c 5d bd 2c be 58 5f 8f be d9 7f df bd
       0.016370606 -0.16869111 -0.2800243 -0.10913057
000080 75 3b 18 bf 2d 07 c3 bd ab a4 3b 3e f0 f3 cf bc
       -0.59465724 -0.09522853 0.18324535 -0.025384873
000090 c0 eb 20 bf e3 ad c6 3d d9 12 2d bf e9 cb 27 3f
       -0.62859726 0.09701135 -0.67606884 0.6554552
0000a0 5d 14 c7 3d f1 88 a8 be dc 89 14 3e ce 45 01 3f
       0.09720681 -0.32916978 0.14505714 0.5049714
0000b0 b6 32 4c be 45 52 b0 3c 12 1a 90 bd 26 8c b5 be
       -0.1994122 0.021523604 -0.070362225 -0.35458487
0000c0 23 50 e4 3c 31 ee 54 3c a6 4e a9 3d 83 08 3e 3f
       0.027870243 0.012996242 0.08266954 0.7423174
0000d0 28 f2 c2 3e 9b 61 00 3e 17 9d aa 3d ff ee d4 3e
       0.38075376 0.12537234 0.08330744 0.4158859
0000e0 da eb ec bd 1b b5 06 be 41 78 d6 ba 57 0c 11 bd
       -0.115684226 -0.13155024 -0.0016362743 -0.03541216
0000f0 0b 1c bf 3d 22 48 cb be 95 78 54 bd d5 f5 fa 3e
       0.09331521 -0.3970347 -0.05187281 0.4901568
000100 1d 5c 21 3e e5 17 85 3d a9 3d dd 3d 8a 04 3b bf
       0.15757795 0.06498698 0.10802776 -0.730538
000110 66 9c 82 3d 0b 22 cf 3c 17 81 da 3e 26 98 d8 3e
       0.06377487 0.025284788 0.42676613 0.4230358
000120 58 14 cd bc 74 73 07 be 24 66 6b 3e c8 7e 0f 3f
       -0.025034115 -0.13227636 0.22988182 0.5605283
000130 92 06 20 3c f7 95 0c 3e 77 f6 5a 3e 55 0c b0 bd
       0.0097671915 0.13729082 0.21383081 -0.08596102
000140 be 48 bc 3d 32 a0 1d be 0b 24 1e 3e 19 c9 20 3e
       0.09193562 -0.15393141 0.15443437 0.15701713
000150 f3 70 94 3e e8 0c 37 bd 5b c5 ac 3d 5f 70 c3 3d
       0.28992423 -0.044690043 0.0843608 0.095429175
000160 14 9e 8f 3e 34 0e 89 3c 73 7f 33 3d 14 16 17 bd
       0.28050292 0.016730405 0.043822717 -0.03688629
000170 ee 56 a2 bc da 8f 13 3f 91 45 20 3e d9 81 5a 3b
       -0.019816842 0.57641375 0.15651537 0.0033341555
000180 c6 2f 0a bf 47 a1 85 be 5a 8c ee be 68 ed 42 3f
       -0.53979146 -0.26099607 -0.46591455 0.76143503
000190 24 ce d9 be 4f 4a b3 3d e3 39 0f 3d af e1 7b 3e
       -0.42540085 0.087544076 0.034967314 0.2459781
0001a0 11 97 af 3d b1 a2 14 be ef 59 16 be cb 73 93 be
       0.085737355 -0.14515187 -0.14682744 -0.2879928
0001b0 4a e3 a1 be fb b5 15 3e 3a 5e e6 be 1c 3b 9c 3c
       -0.3161872 0.14620201 -0.44993764 0.019071154
0001c0 67 d5 3e be 78 81 67 3e 79 3a ba bd 9c ff a6 be
       -0.18636094 0.22607982 -0.09093184 -0.3261689
0001d0 89 8a 70 3d 5b 51 d7 bd bf 4c 12 be f5 1b a2 be
       0.058725867 -0.10513564 -0.14287089 -0.31661955
0001e0 74 9e 1a 3e c9 b6 f8 be 9b 9d 44 3e d5 4f 28 3e
       0.15099508 -0.48576954 0.19200747 0.16436704
0001f0 44 a0 0d be 6f 27 c1 3e 83 96 b5 bd 7b 5c 96 be
       -0.13830668 0.37725398 -0.088665985 -0.29367432
000200 f0 c0 eb bd 2e b1 d5 bd 04 86 84 3e 3e d7 28 be
       -0.11511409 -0.10434185 0.25883496 -0.16488358
000210 6f 2f 9d bd 5a 01 ea 3d 4d 8b 20 be 54 ac 98 3e
       -0.07675063 0.11426039 -0.15678139 0.29818976
000220 3c 80 b1 3d aa e0 30 bd be 3f eb bd 96 4e a2 3d
       0.08667037 -0.043183006 -0.11486767 0.07925145
000230 99 c6 84 bd b6 1a fc bd bb 13 69 3d 54 d2 b0 bd
       -0.06483192 -0.12309782 0.056903582 -0.08633867
000240 63 a1 e9 3d 98 b9 46 3e 8a 05 13 be 56 46 9d 3d
       0.11407735 0.19406736 -0.14357582 0.07679431
000250 0b ab 04 3e 74 e5 46 3d fb f1 62 bb 5f 27 20 be
       0.12955873 0.048558667 -0.0034629095 -0.15640019
000260 34 45 35 be 09 07 25 3c d2 53 8f be 3c cc 9b 3e
       -0.1770218 0.010072478 -0.27993637 0.30429256
000270 de 5f 81 be 3b ba 87 bd b0 95 7d 3d bd 36 1a bd
       -0.25268453 -0.066273175 0.06191033 -0.03764986
000280 e5 63 0e 3f 0d 79 5e bd b0 3e b7 3d 73 ea 79 bb
       0.55621177 -0.05431466 0.089475036 -0.0038134127
000290 bc d0 d9 bd bd ba 53 be 47 d9 d2 3e 75 3e 05 bf
       -0.10635516 -0.20676704 0.41181394 -0.52048427
0002a0 8e 51 37 3e e0 c4 c1 3b c0 d8 22 3d 44 ec 60 bb
       0.17902204 0.005913362 0.03975749 -0.0034320513
0002b0 c2 84 0f be a6 58 49 3c 42 2a c1 bd 57 38 38 3e
       -0.14015487 0.012289202 -0.09431888 0.17990242
0002c0 d2 b9 86 3c 1d e9 3a 3e 8c 5c b0 bc 03 6c b6 bd
       0.016446028 0.18252988 -0.021528505 -0.0890732
0002d0 bc ef 20 3e f1 3a e9 be 1a 5c ea 3d 98 73 9a bd
       0.15716451 -0.4555278 0.11443348 -0.07541579
0002e0 fc ec 6d 3c 9c 92 fc bd 57 6c 93 bd 7f cb 69 3e
       0.0145218335 -0.12332651 -0.071983986 0.22831534
0002f0 fa f2 4b 3c 9b 52 9b 3e 3e 3b 67 3f 68 c8 83 be
       0.012448067 0.3033646 0.9032477 -0.25738835
000300 14 60 cf be 47 0e 44 bd f4 17 35 bd 80 d2 de 3e
       -0.4050299 -0.04786518 -0.044212297 0.43519974
000310 ea bb 57 be c8 3c 87 3e 5d 7e 2e bf 2d 26 91 bd
       -0.21067777 0.2641356 -0.68161565 -0.070873596
000320 c2 f0 b3 3d e2 b4 2e be 36 6f b5 bd 3d bb 84 be
       0.08786155 -0.17061189 -0.088591024 -0.259241
000330 c3 b7 3a be a2 98 77 be 27 13 bd be d9 85 c3 3d
       -0.18234162 -0.24179319 -0.36928675 0.09547014
000340 2a e5 e0 bd 43 9e b5 3e 01 90 da 3d 6f 34 af be
       -0.109812096 0.35472307 0.10671998 -0.3421969
000350 3f 25 d8 bd fa 01 30 bf 02 03 a9 3e c6 07 66 be
       -0.10553979 -0.68753016 0.33010107 -0.22463903
000360 5f 4f 46 3e 8a 04 fb be 8c 5b 17 bd 97 af 90 3e
       0.19366215 -0.490269 -0.03695254 0.28258964
000370 f7 aa be bd 32 07 ae 3c b0 00 39 3d 02 d8 44 be
       -0.09309953 0.021243665 0.04516667 -0.19223025
000380 f8 1d 37 3e 3e fb 97 bc 85 28 0d 3d a2 4f 4d bc
       0.17882526 -0.018552419 0.03446247 -0.012531193
000390 cd 22 c6 3e a2 e4 5c 3e 78 71 d9 3e c3 73 b0 3e
       0.38698426 0.21571591 0.42469382 0.3446332
0003a0 a5 58 91 3c 5a a0 d3 bd cd 27 1c 3e 19 02 1d 3f
       0.017742464 -0.10333319 0.15249558 0.61331326
0003b0 80 8a 88 3e d3 37 88 3d c9 4b c9 3d 0c 44 84 be
       0.26668167 0.066512726 0.09828908 -0.25833166
0003c0 18 01 fe 3d 49 ca dc bd 3d 64 05 3e 6a f0 fa 3e
       0.12402552 -0.1078077 0.13026519 0.49011546
0003d0 90 11 a9 3d 41 76 8c 3d 0f 72 8c 3d 36 e8 b0 3e
       0.08255303 0.06858493 0.068576925 0.34552163
0003e0 2b 9a 24 3e 48 68 c9 bd 11 11 87 3e 6f fa f0 bc
       0.16074435 -0.09834343 0.26380208 -0.029416291
0003f0 a9 9e 93 3e db f6 a9 be 33 96 04 3e 6f 0a ec 3d
       0.28831986 -0.33196148 0.12947921 0.115254276

fc2.bias f4 [16]
000000 56 3f 49 3d 50 d8 f4 bd 40 61 99 3e 26 82 13 3e
       0.049132667 -0.11955321 0.29957008 0.14405116
000010 24 27 97 3d a4 3c b7 3d 57 98 06 3e e6 50 8a 3e
       0.07380512 0.08947113 0.1314405 0.27014846
000020 fb 6b 9e 3e 63 ef 02 be 0f 82 55 3e 57 47 26 3d
       0.30941758 -0.12786631 0.20850395 0.04059538
000030 f4 62 95 be 5d 7f ab 3e 75 cf 05 bd 2b ff 69 3e
       -0.29177058 0.33495608 -0.03266855 0.22851245

fc3.weight f4 [4, 16]
000000 96 d5 d5 3d 42 49 ee 3e f5 93 31 3e 6c 17 35 bf
       0.10441129 0.46540266 0.17341597 -0.70738864
000010 8c 1d 5e be f9 b9 00 3d 80 82 92 be 71 f8 a9 3e
       -0.21690959 0.031427357 -0.2861519 0.33197358
000020 92 f7 8c 3e d5 85 23 bf 60 2b 1f 3f cc 2d 7b bd
       0.2753263 -0.63876086 0.6217556 -0.061322972
000030 f9 e9 47 be 6c d8 7d 3d 56 84 9f bd a1 5b 83 3e
       -0.19522847 0.061973974 -0.07788913 0.25655845
000040 df 9d 79 3d 27 3e f4 3e 11 01 0a bd 43 cd 45 3e
       0.060941573 0.47703668 -0.033692423 0.19316582
000050 52 c6 94 3e 21 ea ee 3d 40 f0 5c be 21 76 ab 3e
       0.29057556 0.1166575 -0.21576023 0.33488563
000060 fd 45 1d 3e 87 6c db be b9 15 20 3f d3 ec 35 3e
       0.1535873 -0.42856237 0.62533146 0.17766123
000070 a5 34 98 be 6e 26 82 3e 94 ea c5 bd 17 a7 8e 3e
       -0.29727665 0.25419945 -0.09663883 0.27861854
000080 d6 b9 b7 b9 a6 76 b8 3d b6 dc 5a 3e a2 67 b9 bd
       -0.00035042939 0.090070054 0.21373257 -0.090529695
000090 de 48 38 3e 3a 17 cf 3e 3d 15 ae be 8f 53 94 3d
       0.17996547 0.40447408 -0.3400058 0.072425
0000a0 5c 1f 94 3e e6 1b e9 be b8 e6 aa 3d fe 67 bb 3d
       0.28930175 -0.45529097 0.08344787 0.09150694
0000b0 c5 9b 34 bf 8c 1f 96 3e 9c b0 99 be a3 15 b8 3e
       -0.70550185 0.29320943 -0.30017555 0.35954008
0000c0 08 30 ff 3e 1b 71 1e 3f 74 03 95 3e b7 c8 09 bf
       0.49841332 0.61891335 0.29104197 -0.5382189
0000d0 b6 2e 7d 3e 35 8d 52 be d2 24 c7 bd d7 3b 91 3e
       0.2472485 -0.20561679 -0.0972382 0.28365967
0000e0 d1 f2 1e 3e f2 80 9e be de 81 30 3e db 0d cf 3e
       0.15522315 -0.30957752 0.1723704 0.40440258
0000f0 bd 49 87 be 01 0c 38 3e 42 9b 81 be dc 69 87 3d
       -0.26423445 0.17973329 -0.25313765 0.06611988

fc3.bias f4 [4]
000000 ca c1 18 3e 88 23 88 3e c2 0d 11 3c 13 f2 8c 3e
       0.14917675 0.26589608 0.008853378 0.27528438
